models/8yvah9tn.ckpt (torch, 227671 bytes, 20 tensors)

model.gnn.0.GFL.0.weight f8 [32, 1, 8, 2]
0	0x3f944f5aaaae48a5	0.019833962123421717
1	0xbf9298cd0ebdda53	-0.018161014580494527
2	0xbfa44327429ce340	-0.039574839478922375
3	0xbf86058ddbde91a9	-0.010752781174070263
4	0x3fce67540741ef8a	0.23752832750676262
5	0xbfbf2c2df080e5ab	-0.12176787492435064
6	0x3fb282ba9bffcdb6	0.07230726536345497
7	0xbf90566e4a9c1821	-0.015954707435433705
8	0x3facc009b4f6b0ef	0.056152633037841564
9	0xbfcb854399ffb567	-0.2150043966243331
10	0x3fc025f7473ba8ce	0.12615862825561525
11	0x3f9b76d63db37453	0.026820514217309754
12	0xbfbd51f54cd38a5f	-0.11453183293955636
13	0xbfb3cefb6333711d	-0.07737704440973343
14	0xbfb0e2317db36650	-0.06595143622271249
15	0x3f9431173175eaaf	0.01971851577170963
16	0xbfc893687df0d35f	-0.19199854039620853
17	0xbfd1298949617898	-0.26816017309273255
18	0x3fac367274244e45	0.05510289829012697
19	0x3fc4633c6fe2ab16	0.15927844489245818
20	0x3fb164310f7ef996	0.06793505314178669
21	0xbfaa20a0edfb052e	-0.05103018670116409
22	0xbfb4c1248c8030a2	-0.08107212476915263
23	0xbfb4b01287d0f6e2	-0.08081165138079485
24	0x3fb3a42195968137	0.07672319318817676
25	0xbf83042f446c1ea1	-0.009285325313171557
26	0xbfabfef27fc05cf7	-0.054679468245177824
27	0xbfb32c41363a1879	-0.0748940236463528
28	0x3f8cf4247945a8af	0.014137539816790527
29	0x3fb39ff4687d989f	0.07665946532287869
30	0xbfb200f93d3d7fe5	-0.07032735581515188
31	0xbfc07c2dc205a33e	-0.12878963445407438
32	0x3fa926c96f66afd0	0.049124045227784685
33	0x3fa7cfd17b4f74e0	0.046507402708565015
34	0x3fb2229412036c2f	0.07084012450961617
35	0x3f519c13e5ca0151	0.001074809485686574
36	0xbf9e906467685b61	-0.029847687541486482
37	0xbfae1673a6a81523	-0.05876504334814061
38	0xbfbe8dbfe1282787	-0.11935042616837964
39	0x3fbb349ac1960513	0.10627143121930187
40	0x3fad5f9f11e08521	0.057370158130888756
41	0x3f7ee1df7c7e3af2	0.007539628022540811
42	0x3f68922b258b820c	0.0029993860920145606
43	0xbfa65681757e8a42	-0.04362873610741193
44	0xbfc86a30b5b07571	-0.19074066993281805
45	0xbfc317371af0dba7	-0.14914597335311194
46	0x3fc1233adb17608d	0.13388763139551366
47	0x3f88a483469b54f6	0.012032533256766769
48	0x3fac50217ca5515e	0.05529884954981655
49	0xbfa52e3c6b37da04	-0.041368377769618575
50	0xbf9301477c7560ac	-0.018559567424148923
51	0x3fc52f907ce3005d	0.16551405046448311
52	0x3fbbb7add3e82497	0.10827146934038222
53	0xbf9273625bad469d	-0.018018280835639378
54	0x3facf1fbb39f9925	0.05653368537587004
55	0xbfa844c3b2b6c118	-0.04739963108602491
56	0xbfa81c8e308fff1f	-0.04709286063007156
57	0xbfb24f6d86da98c9	-0.07152447264033691
58	0x3f9538ab0b1f8933	0.02072398429289386
59	0xbfb4493c1a430f5b	-0.07924247399483646
60	0x3f8ccfdf7b678dc2	0.014068361238009145
61	0xbf9e623c482ee2cd	-0.029671613603315095
62	0xbfb497ebd6b07ed6	-0.08044313422623914
63	0xbfb0a8cd8389a9cf	-0.06507572614069733
64	0xbfa1a8205abf1796	-0.03448582751984401
65	0x3fb18ecd7a627810	0.06858524549394951
66	0x3fb921e9082fbd04	0.09817367982735808
67	0xbfa837f7b715be9a	-0.047301999186740676
68	0x3fb20839e86e48d6	0.07043802189426471
69	0x3fb15cab90fafe12	0.06782028474389559
70	0xbfbe8cf9d9d3be95	-0.11933862274212921
71	0xbfb185e87fa82560	-0.06844952694532003
72	0xbfbbc304a3a770dd	-0.1084444903894481
73	0xbfc2c3bd26e91112	-0.14659847640917484
74	0x3fb4ff8e0ff2e769	0.08202445878387511
75	0xbfb28f7f8fb07348	-0.07250211008108665
76	0x3fa4fe488d758b48	0.041002528446162645
77	0xbfbe50a003a1acbd	-0.11841774071369833
78	0x3fa109a72db3c0e5	0.0332767718590519
79	0x3fc08a28f260a239	0.1292163070186392
80	0x3fbe6c5ced3aa423	0.1188409880802657
81	0xbf93bcfd484bf636	-0.019275624787942834
82	0x3fc942591462cc80	0.1973372792759598
83	0xbf81ddcd88be75a0	-0.00872383664664761
84	0xbfb114bd99891d44	-0.06672272680690577
85	0xbf851278bd2c2247	-0.010289138100703655
86	0xbfb51ec3ac099c81	-0.08250067663321838
87	0x3fa25f0c66009946	0.0358814119829725
88	0xbfb91500f2a29169	-0.097976741063183
89	0xbfa0d1e9e9cfffcc	-0.03285151461750466
90	0xbfb1a80e2c5a24a7	-0.06897057135405991
91	0x3fa7490bce45ef67	0.04547917263968664
92	0x3f87b0a95712c8c8	0.011567423791664658
93	0xbf98cc86581901f2	-0.024217700125747706
94	0xbf88a12d005011cc	-0.012026168415112524
95	0xbfbdf5cdfbd6634d	-0.11703193090796767
96	0x3fa936d3d4292902	0.04924642529347702
97	0x3f8d60817912fb03	0.014344226367368323
98	0xbfa69def4d872a9f	-0.04417369672190329
99	0x3fb41d574c90ce7d	0.07857270831373771
100	0xbf9d84fe25484976	-0.028827639604125342
101	0x3fc8103c8b124aa6	0.1879954985675642
102	0xbfa562a78faa6bfa	-0.04176829937679112
103	0xbfbe0e7327446942	-0.11740798672363886
104	0x3fb5e365ffeb2437	0.08550107477198386
105	0xbfbd95aff023d439	-0.11556529629508895
106	0xbfa10fb5f08aead6	-0.03332298814117045
107	0xbfaad461a8ce867c	-0.05240159211758752
108	0xbfbf1b1c9f7ddecc	-0.12150744336929192
109	0x3fad75c3b34d72ec	0.057539096486584146
110	0xbfa7ced914d52a35	-0.04649999980263823
111	0xbf980431d10e1ac8	-0.023453501114569147
112	0xbfa6570954a592d7	-0.043632785399301426
113	0xbfa27370da2161cf	-0.036036993624921736
114	0xbfc8166d30673ba9	-0.18818440307083265
115	0xbfb1bf854f92251b	-0.06932862465523153
116	0xbfaceeb1c3b852c8	-0.05650859369430844
117	0xbfb5c5555c4528e9	-0.0850423193234381
118	0x3fbd95b209a748ec	0.115565421444703
119	0x3fb8d585a96b1057	0.09700808893382039
120	0xbfb67d52172d3a95	-0.08784974160992427
121	0x3fb5337f4f626110	0.08281703651517014
122	0x3faf56b50bb147c6	0.06120839851122599
123	0xbfb6c233e88b4ec7	-0.08890079905841751
124	0xbf905c7070c13900	-0.01597762764168298
125	0x3fc13d17ebd92622	0.13467692390467884
126	0x3fc2931b9ec0a15b	0.14511437656006873
127	0xbf8daf9b611ffb6a	-0.014495099927442207
128	0xbf92f17a6ece184f	-0.018499291432384542
129	0x3f90258e20dad39d	0.015768261676118212
130	0xbfc8ca83eaff2315	-0.19368027662701395
131	0xbfc4a4ef8831ab74	-0.16128343725298644
132	0xbf6a12c5d81e8d0c	-0.00318277970741721
133	0xbfb929a1e58bdf39	-0.09829151014480154
134	0x3fbd5b9f13b81f2b	0.11467928153444677
135	0x3fa99294e9873927	0.04994645453153828
136	0xbfb792c690535aa9	-0.09208336852621336
137	0xbf8af6328517ddb0	-0.013164896666224418
138	0x3fc467be8f62d009	0.15941602708119287
139	0x3fc331dd7c71150d	0.14995926452881073
140	0xbfb8f54f2ba744c4	-0.09749312225109735
141	0xbfb0c9623e1a0816	-0.06557287231592598
142	0x3fc040ee6691a2d0	0.1269815445732747
143	0x3fa71567c50513af	0.045085184860489284
144	0xbfd10a97fc8781f2	-0.2662715879542069
145	0x3fb28a27bc0b8f39	0.07242058125444552
146	0x3f999dfbdca8fc84	0.025016723006271238
147	0xbfae55a62d8cbddf	-0.059247201023364
148	0x3fc9c806e6624ef4	0.20141683816165534
149	0x3fb604b84b1d872f	0.08600951990004256
150	0xbfa76e8dd7ae6c23	-0.045765335634506486
151	0x3fc470eb289e1374	0.15969600184703447
152	0xbfc1f62482153a01	-0.1403241763277521
153	0xbfc34c7fa54dc905	-0.15077205249287587
154	0xbfae029710ae6452	-0.058613510881692435
155	0x3fb3c15bcf66c599	0.07716916860115076
156	0xbfb8af717c98cac3	-0.09642705242076048
157	0xbfb1f52deddc4eb5	-0.0701473909105584
158	0x3fbe6ce74cae034f	0.11884923574508587
159	0xbfc9101b4b976f89	-0.19580403510087432
160	0x3f81aba1cec56f70	0.008628143427521912
161	0x3f6269454c5ef262	0.0022474626047979543
162	0x3fa246f0a8bddb9d	0.035697479818671975
163	0xbf9f784c2e921cac	-0.030732336370900157
164	0xbfa7d0df3fbaff13	-0.04651544239959384
165	0x3facd52c2f664262	0.056313877855363584
166	0x3fc2ee1dfedd5e77	0.14789175934378182
167	0xbfb1bde8591df63d	-0.06930401015957784
168	0xbf81992b7bf0728c	-0.008592929572892836
169	0x3fbad00b9338c134	0.10473701805381525
170	0x3faedffd5ec6454e	0.060302656001236174
171	0xbfc0f46660f65e39	-0.13245849356165865
172	0xbfbcecb2d190f7b8	-0.11298673263897185
173	0x3fcb4decfd9b5fbd	0.2133156050028883
174	0xbfbfb310b3706828	-0.12382606869542256
175	0xbfa8c70e5673d66a	-0.048393676808626676
176	0xbfab357c62f23d16	-0.05314243991699123
177	0x3fab7bdc2d1557dc	0.05367935228666429
178	0xbf99eed4158b9170	-0.02532512074948684
179	0xbfb1e19b1f7984b1	-0.06984872358727291
180	0x3fb0cd3ae8b174ce	0.06563156300531434
181	0xbfb6d2bb3e468da1	-0.0891530062713657
182	0x3fbb1794a5061646	0.10582856205845656
183	0xbf94af3c781e3f39	-0.02019972308295268
184	0xbfc051ad557b4732	-0.12749258684066828
185	0x3fbe3197a9a76910	0.11794422046606123
186	0x3fb3c9300c80b37a	0.0772886305355324
187	0x3fc94c0bc837931a	0.19763324047303216
188	0x3fbf3cdedb65b634	0.12202256065730738
189	0x3f96273e98a9ea63	0.02163408095155218
190	0xbfc354116ab74d0f	-0.1510030528139414
191	0xbfca0b2ef927313e	-0.20346629300764535
192	0xbf931bca87083987	-0.01866070222063734
193	0x3fa6fa3b11a1bf25	0.04487785902244771
194	0xbfbbffca61eb2df6	-0.1093718041476491
195	0x3fb7654ac3218ad5	0.09138934387150795
196	0xbfa44b53509442dd	-0.039637187563249056
197	0x3f662a003c9feeba	0.002705574476747544
198	0x3f7726608f989d9f	0.005651833716491166
199	0x3fbe141caea6848b	0.11749438537528271
200	0x3fae0c8a86b8c45b	0.05868943113853994
201	0x3fbc5926be2466d7	0.11073534147399343
202	0x3f78e35b1fd295c2	0.006076198534321122
203	0x3fc1e4d84555982b	0.1397962893053671
204	0xbfc4c303cefbb29f	-0.16220138174630436
205	0xbfbc57de34d373fa	-0.11071575917908652
206	0xbf90e019fa67cf98	-0.016479879292048943
207	0xbfafa9292dc16be2	-0.061837469897646505
208	0xbfa6b060bf841c74	-0.04431440675585288
209	0xbfb0a225daa7f7d4	-0.06497418010982808
210	0x3f9e201e3c210dd4	0.029419395847311083
211	0xbfab5c8246fa19de	-0.053440161861590715
212	0xbf8d02f251d7d284	-0.014165776369716505
213	0x3fb2de79f353bc3e	0.07370721998789606
214	0x3fc02be10e8ef820	0.12633908472884148
215	0xbf93a5556f868861	-0.019185385639169165
216	0xbf900f0b4e75e27e	-0.015682388938758944
217	0x3fa5267062150f36	0.041308891270573175
218	0x3f7ba486cf62ba01	0.006748701669649027
219	0xbfc399fded6ed88e	-0.153136959966734
220	0x3fb029dd428a903f	0.06313879847090308
221	0xbfb24f37d8e7f0dc	-0.07152127309376816
222	0xbfb6ea45d3bfd592	-0.08951221866285256
223	0xbf744438dba77c9d	-0.0049478741661622945
224	0xbf60bbd35efc51a5	-0.002042687257821823
225	0xbf9f1967fc76607b	-0.030370354446489927
226	0xbf97ed6e22ca7efe	-0.023366661904787193
227	0x3fb8983ce4d62d3f	0.09607296549636589
228	0x3f9b9f48eaabb352	0.026974810908473153
229	0x3fc092fea705981e	0.12948592334140668
230	0x3fbefaf7256e5547	0.12101692832796572
231	0x3fc59502a7dfe00e	0.16860993573186572
232	0xbf984b3a26e5c397	-0.023724468826404523
233	0xbfb06bfb361ce1d9	-0.0641476637946491
234	0xbfb4362898902b1f	-0.07895139431654428
235	0xbfbe2e6df8408e65	-0.11789595900386869
236	0x3f745be1ac4b014f	0.004970437560303089
237	0x3fa6703102e93410	0.043824702840176255
238	0xbfb177a8bcc5430f	-0.06823210343032947
239	0xbfcad6e7900378c2	-0.2096833661261766
240	0x3fa1ef3bb7088272	0.035028329937863215
241	0x3f967f44aaa7fc08	0.021969864765193164
242	0x3fb7271318cfb297	0.09043998103852356
243	0xbfb1dbdcc0374e3e	-0.06976108258032185
244	0xbfb24fa4c9405e36	-0.0715277663551824
245	0xbfc0758cb3745231	-0.1285873295061193
246	0x3f95b5f6e840f261	0.021201951909676334
247	0x3faa347092b2d1d9	0.0511813334536872
248	0xbfc810ef3a92c5e6	-0.1880167995455359
249	0xbf821f4daae29fb3	-0.008848768975738474
250	0x3fa5aa684b6373fe	0.04231573028821599
251	0x3f8da5c7e3ffdbed	0.014476358075610174
252	0x3fb75a05f3f91ff9	0.09121739584327306
253	0x3fcc55b6009519cf	0.22136569050253604
254	0xbfb47c0df16ac971	-0.0800179209134393
255	0xbfc25cc71a968e9e	-0.14345635221717584

model.gnn.0.GFL.0.bias f8 [32, 1]
0	0x3fc0b72ae31e8200	0.13058982934764174
1	0x3fc8fd4a21f6f2d6	0.19522978456907109
2	0xbfd727399437e0d4	-0.36176909899178367
3	0xbfe26619ad08e6a1	-0.5749634151063284
4	0xbfc1b5f9aef2fb9c	-0.13836594622077036
5	0x3fe50e808c87bdcc	0.6580202812892195
6	0xbfc396205829d9c8	-0.1530189924703349
7	0x3fe573616ba5c0d2	0.67033453965089
8	0xbfd03714de082a0a	-0.25336190874864484
9	0x3fe0b50c6928da85	0.5221006444833881
10	0xbfbab0e6385f1dac	-0.1042617690683218
11	0xbfd9f139856aa61b	-0.40534818676914747
12	0xbfd66a362201cf4f	-0.35023263283732303
13	0x3fcdc01c05f1db5c	0.23242521562834895
14	0xbfd1b4018d930b77	-0.27661169839500793
15	0xbfdd34d178470411	-0.45634876962509546
16	0x3fe4a23895e8828b	0.644802372731719
17	0xbfb906ec1a02fc1a	-0.09776187548685336
18	0x3fd1a6fbbfd91f8a	0.27581685767335584
19	0x3f97cdddd45901eb	0.02324625595633904
20	0xbfda8cab9783a83a	-0.414835832560701
21	0xbfdbbc9f73a60b1a	-0.4333876256352355
22	0xbfea80d7edc9da8a	-0.8282279629045928
23	0x3fca8662718bae0b	0.20722609085292762
24	0x3fac78391af204d5	0.05560472921298191
25	0xbff13a7c47c744c8	-1.0767786792605865
26	0x3fd84d6888c0a9b9	0.37972462992425055
27	0x3fcd58c7d34fe579	0.2292718679234829
28	0xbfbc026c3ff32866	-0.10941196976924203
29	0xbfded572bf18a96e	-0.48177784597159856
30	0xbfac75d87a8b8523	-0.055586590727907635
31	0xbfde4b9e0532d12f	-0.47336531169573254

model.gnn.0.GFL.3.weight f8 [32, 1, 8, 32]
0	0x3f474d4f0209ef95	0.0007111202031206849
1	0x3fbb87464c5b7012	0.10753287662686287
2	0xbf5423a424587061	-0.0012292006443948222
3	0xbf9265a71a167757	-0.017965899436254897
4	0xbfb469df4009553c	-0.07974047959699687
5	0xbf76367fdbdf6ca7	-0.005423068474523485
6	0x3f8203f8d16d40e9	0.008796638385007731
7	0x3f7aef1d84b97132	0.006575694376433726
8	0xbf99e5e6e9684dd0	-0.025291069027003676
9	0x3faf0bb4ba62e6cb	0.060636184456098606
10	0xbf9edaa758abb329	-0.030130972659139808
11	0xbfa2a62d19a92581	-0.036424073583996915
12	0x3fb928df094635c1	0.0982798955576163
13	0xbf848ac82c01df46	-0.01003033050822889
14	0x3f9793e0c32cfb5b	0.023025047218875865
15	0xbfc40e39d772939f	-0.15668414134884487
16	0xbf8c2fdc2a2eb6ae	-0.01376316074114511
17	0xbfc3457e474299c3	-0.15055826644420564
18	0xbf86eed4e6972e1c	-0.011197722708764117
19	0x3f92d62ea0814149	0.018395165010873602
20	0x3fb6dcc91aa6ae14	0.08930642033254116
21	0x3f8f638c79fcaee8	0.01532659289622225
22	0x3f91abdeb9e5e3a3	0.017257194610894932
23	0xbf91b1154d8fb0f7	-0.017277081355062198
24	0xbf7a68b3de09eb2b	-0.006447508436958664
25	0xbfa6ae51aa115124	-0.044298698435030454
26	0x3fa1a1884d712dfb	0.034435519650823886
27	0x3faa9b1615f41cc0	0.05196446435916746
28	0xbfa07f2d173be679	-0.032220276914768094
29	0x3f833e1ef4c8e54f	0.009395830006826115
30	0x3f92821fa9c324e4	0.018074507461993586
31	0x3fb132fea52f8f7a	0.06718436749321013
32	0x3f7d9ef973ea988c	0.007231687951081988
33	0x3fac47f758fdf587	0.055236558545384055
34	0x3f854fe40ee7723c	0.010406285958134302
35	0xbf82acfea21866a5	-0.00911902362990997
36	0xbf9c0f8ec65d008a	-0.027403097970136993
37	0x3f76c98c4d3aee8d	0.005563304952086801
38	0x3f5aa0910a282609	0.0016251961138799029
39	0xbfac03cf77e6da88	-0.05471657122273138
40	0xbf87781e26347ba5	-0.01145957521526759
41	0xbfa2f6b3c4dcb8d6	-0.03703843858817073
42	0x3f9c28c923a27dab	0.027499335098239246
43	0x3fbf6f9d2112a711	0.12279684121554292
44	0x3f6bf82946af1be5	0.0034142309354794225
45	0x3f9542572be7a32d	0.020760881476152782
46	0xbfa8e74f302e164a	-0.0486397501290808
47	0x3f9356e583cb73cb	0.01888617150222042
48	0x3fbb4d59e276354f	0.10664903429843274
49	0xbfa7aece81c45935	-0.046255544033714825
50	0xbf84d9e29c013ded	-0.010181208024873956
51	0x3fcb9fb59e399ef8	0.21581144548257902
52	0x3fb9aade9ef64ea7	0.10026351338302196
53	0x3f8acc70604570b4	0.013085248887982771
54	0x3f9e3d3f86881118	0.029530518137122902
55	0x3f5bc37488ff4c9c	0.0016945493734865985
56	0x3f9376bcc2648029	0.019007634510785607
57	0x3f939944b604d9cd	0.019139360055499034
58	0x3fb1978fb6e375a9	0.06871889319469084
59	0xbf8e9f47bfb7032e	-0.01495224050347729
60	0x3f6ddb4c078c1754	0.0036446080160911585
61	0xbfb0aa478ebca05a	-0.06509825930391014
62	0x3fc1df4725c5a415	0.13962640137040752
63	0x3f899922d8fd062a	0.012499115225753494
64	0xbfa08a09276ff502	-0.03230312925732372
65	0xbfabbdbef7fc1f5f	-0.05418202187689646
66	0xbfa114f9945ef90c	-0.033363150941555814
67	0xbfa2bae78fed024f	-0.0365822184744543
68	0x3fad5aa63c56ced1	0.05733222471772382
69	0x3f9393743d1e045a	0.019117180090237752
70	0xbfa21b9f0232e3b9	-0.03536698247757592
71	0xbfaf2718dd772742	-0.06084516242442685
72	0xbfa0298f62e23c52	-0.03156707841946428
73	0xbfafc86dcb5cc05a	-0.06207602603387903
74	0x3f9543d76dfb4461	0.020766607368220117
75	0x3fb86bcfb950752a	0.09539507173800091
76	0x3f8942955afce1d9	0.012334029044368687
77	0xbf87d46874a3ddbb	-0.011635604915212086
78	0x3f8ae1690057557a	0.013125248263274204
79	0x3fb876d1cad787b2	0.09556304170794652
80	0x3fc3d8239201c7d9	0.15503353718992122
81	0xbfae6005e5127989	-0.05932634755412198
82	0xbfa4c1e8c2d0a40a	-0.04054190996277647
83	0x3fd029b50098476d	0.2525455957230552
84	0x3fa4fd77dca2ea88	0.04099630897822687
85	0x3fb40a97a1788d8a	0.07828662578736192
86	0xbfa78f829ad3d91a	-0.04601677074417605
87	0xbf8d091199512a1a	-0.01417745350967885
88	0xbf4e512d9d540976	-0.000925204537139997
89	0x3f9290e5495ec220	0.01813085804286818
90	0x3fa49468361344c5	0.04019475612734306
91	0xbfa17bff43a85917	-0.034149147995934985
92	0x3f8b979c44b9ce8b	0.013472767684312067
93	0x3f914fe6ab751b2d	0.016906360831195833
94	0x3fbb066c931f1f3f	0.1055667742904207
95	0x3fbf007016be6dcc	0.12110043101568307
96	0xbf914548d7e91fcc	-0.016865862062587486
97	0xbf734837495447b7	-0.004707542383828248
98	0xbf9d12b25007f82b	-0.02839163411589866
99	0x3f917cd72b988296	0.01707779124820038
100	0xbf88b4c3e3b84fc9	-0.012063532244645974
101	0xbf79a37ff10c39b1	-0.0062594411581486245
102	0x3f92ee12435a09b2	0.018486295090505762
103	0xbfa0e6ec85b28d17	-0.03301180965470445
104	0x3fb28f932fe1477c	0.07250327986665
105	0xbfa8ce3883f6a0cb	-0.048448339566051844
106	0xbf8db1f6d220626d	-0.01449959591632074
107	0xbfaabf161f02f592	-0.05223912361678197
108	0x3faf44362d80207f	0.0610672884504888
109	0x3f8676c821163cc9	0.01096874571774577
110	0x3f9bc7070472a482	0.027126416822885087
111	0x3fa896166b27ae32	0.048020077305264044
112	0xbf86b1a71b1d08c0	-0.011081033244071725
113	0x3f9afc9376030482	0.026354126050823108
114	0xbf95999bd100de0d	-0.021093783027224023
115	0x3fa5e4f810c4e951	0.04276251988126723
116	0xbfb14cec9e1d5e14	-0.06758002147886827
117	0x3fc02d6aff2f0160	0.12638604602944792
118	0xbfa47427dc2323ee	-0.0399486976835489
119	0xbf84b180ad63395e	-0.01010418442856736
120	0x3f7ac8dbd9347521	0.006539210112604083
121	0x3fb75298269dc49d	0.0911040396001845
122	0xbfb30fce2d776d68	-0.07445992097875875
123	0x3fb243aa0548a5fa	0.07134497288702582
124	0xbf8f475a1c62099b	-0.01527281188123624
125	0x3f88709c86e100e2	0.011933539262941332
126	0xbf9f2b05398311a9	-0.030437547335866153
127	0x3fb9de40e632f1cd	0.10104756946652245
128	0x3f8b87f9d452bf24	0.013442947189417583
129	0xbfc1830da5f3f49b	-0.13681192973300402
130	0xbfb3a6e165a1a660	-0.0767651436923642
131	0xbf965b6f37cb7a91	-0.02183316972775146
132	0xbfa1b0f2dea147ee	-0.034553136517061364
133	0xbfa734cdbd26d68f	-0.045324735011871835
134	0x3fa9a4676cfb51bc	0.050082428029472464
135	0xbfb39638bb03148d	-0.07651094976161428
136	0xbf8f3a4ba7569381	-0.015247908634430153
137	0x3fa734bccbf1f0a1	0.04532423009456577
138	0x3f93826b9e962c9a	0.01905220179973508
139	0xbfa6bf8ce82354d8	-0.04443016370502456
140	0xbf9da8a6363555e5	-0.028963658388723963
141	0x3f6a527df24288b7	0.003213163365289064
142	0x3fc15598767702f0	0.13542466911714923
143	0x3fb4aa5f6cfd5906	0.08072468195800661
144	0x3f322662b2f71ec8	0.0002769461597975473
145	0xbfafe10c97e6cda6	-0.062263864081070694
146	0xbfa9b6c54fe7f9db	-0.05022255516449877
147	0xbfa24e8ea369beb3	-0.03575559372700123
148	0xbfa141abbfc79b6d	-0.03370415416775683
149	0x3f7c977166885465	0.0069803647716258676
150	0x3f977d8010f1a4e6	0.022939682993102027
151	0xbf66373f2a0c2e05	-0.002711890571281963
152	0xbf883f3a1d632f21	-0.011839345952828819
153	0x3fa4978d2d13c040	0.0402187459493466
154	0xbfa314f9d3846aee	-0.03726940829274904
155	0xbf96941cfc8af849	-0.022049382127754567
156	0x3faa0b9c923fc3fc	0.05086983952777044
157	0xbf94d8e9f522d987	-0.020358710848734
158	0xbf9b9d97026fe4d3	-0.026968345187900433
159	0x3fb05f359955aeea	0.06395277970812754
160	0xbf90359c94043f17	-0.01582951215192371
161	0xbfc0587ee96293d5	-0.1277006759238747
162	0x3fb12beae094e87a	0.06707637770606026
163	0xbf87dfe2432c72b2	-0.011657493281341889
164	0xbf9c30b4da83ac70	-0.02752955039697408
165	0xbfa2b1adc6f2ad2a	-0.0365118317943945
166	0x3fb68f159906756a	0.08812079416244037
167	0xbfa71e010311b9ae	-0.04515078699556639
168	0x3fb12bbc5b8e36a4	0.06707360491983622
169	0xbfa56310cda0d8a8	-0.04177143583403736
170	0xbf937a1b15c57ff2	-0.019020484165025615
171	0x3f92114eeeef7b3b	0.0176441510519638
172	0xbf29eb2d7e87fc36	-0.00019774370527156506
173	0x3f98aab765b994b5	0.024088731368824685
174	0x3fb0115dc33176d0	0.06276498809298947
175	0x3fb331d267ee5fb1	0.07497897183782133
176	0xbf95c640eca1f169	-0.02126409000673971
177	0x3faf478b2a3a01b7	0.06109270945035255
178	0xbf921b952279811d	-0.01768334410587712
179	0x3f9d775027432795	0.02877545585287285
180	0xbf9471b1a2e4182e	-0.019964957778050678
181	0x3fb66cfd879e03f7	0.08760056076972932
182	0x3fa08ed7bdfb5c74	0.032339803639552495
183	0xbfa965f071b76809	-0.04960585964336423
184	0xbf9a79953ce2fb87	-0.025854427186228015
185	0x3fb73e133be8cd61	0.09079094135886613
186	0x3fa0972d619ae96d	0.03240339104145815
187	0x3fb0bbb5e82e7b54	0.06536423605437608
188	0x3f827fde4bbe1ffa	0.009032952009661688
189	0x3fb0ae394b615d37	0.06515844431247762
190	0xbf7f6a34dc3aa863	-0.00766964577239024
191	0x3fad25239f0dd594	0.056923974195267096
192	0x3f7641f9457f4f6b	0.0054340111891696226
193	0xbfc17d4639242529	-0.1366355685243346
194	0x3fd00f199a9a6ad0	0.25092163179367066
195	0x3f9dbafc24a162a3	0.02903360341619766
196	0xbfa808daa86e447f	-0.04694255167044847
197	0xbfb7d18b134433f7	-0.09304112644549876
198	0x3fa9d0cf0f0f30fd	0.05042120989637231
199	0xbfac481ab0d0e127	-0.05523761185071612
200	0x3fb22813c4e67c5a	0.07092402989518246
201	0xbfb1a6c858448400	-0.06895115046474132
202	0xbf9b8a754b6957e3	-0.026895363548042794
203	0x3fb56ae57b438058	0.08366235980383985
204	0x3fb09af5449983b3	0.06486447262569932
205	0xbfb111a2de9d1613	-0.0666753571977881
206	0x3fc07220de4a41ae	0.1284829221153933
207	0x3fc9a850d62f9316	0.20044908960621716
208	0x3f93baeeacb65c6d	0.019267777720952162
209	0xbf86cf08867e9ea4	-0.011137072185945236
210	0xbf94cd529f8e9cfa	-0.02031449412211559
211	0xbfbad32373637160	-0.10478421752072142
212	0xbf93579eff5b7589	-0.018888935409326933
213	0x3fa5ea13e7b035ef	0.04280149653650855
214	0x3fc09c3d16848cd9	0.1297680244398183
215	0xbfb8b79beb54a9cc	-0.09655165191057974
216	0xbf99184dd4c5df88	-0.02450677500880219
217	0xbf76c4b58f4b8a12	-0.0055586902787774384
218	0xbfb9bb9877fb6ab7	-0.10051873139620225
219	0xbfa09277b223e5d6	-0.03236745881617835
220	0x3f74ebfe265a5ce3	0.0051078727462005894
221	0xbf966cffa9382af3	-0.021900171950657698
222	0x3fb248747408f480	0.0714180739677932
223	0x3f99f7027492b04a	0.02535632931237356
224	0xbf91674c7bfc22f4	-0.01699561602348161
225	0xbfc707e02550c499	-0.17992784330411807
226	0x3fca14e7a440b1db	0.2037629653945164
227	0x3fab1de3a7916337	0.05296241207606161
228	0xbf8a9870f7470134	-0.012986071153932778
229	0xbfad39d746ebb844	-0.05708191624386008
230	0x3fb0821738e3a896	0.06448502673052511
231	0xbfaa8ea8a386346d	-0.05186964985032536
232	0x3fb6179c26f1f243	0.08629775954063583
233	0xbfb8ff0dc61f2d00	-0.09764181220014123
234	0x3f8523abc54f8f8f	0.010321943243930124
235	0x3fbef61d3dd2e714	0.12094290503855759
236	0x3fa1895904c5ac1b	0.03425100501302599
237	0x3fa3282924ebd45a	0.03741577697466232
238	0x3fa3636070e9bc79	0.03786755922634994
239	0x3fbc40d2f19fb5c3	0.11036413573284336
240	0xbf9b09b0d35cb99e	-0.026404154682660434
241	0xbf82860a08be382a	-0.009044721977058929
242	0xbfb8682240c89b7e	-0.09533895570403492
243	0xbf88f0ecd34e0fba	-0.012178278158678658
244	0x3fbbaa0440a33760	0.10806299760880966
245	0x3fb10ff3c648d5e6	0.0666496619313289
246	0x3fb8316bc9ce184b	0.09450410534745506
247	0xbfb1080fa29c6fb3	-0.06652925224301391
248	0x3fa0e23d94dc0130	0.032976078435242306
249	0x3fa8a19b8beeebf6	0.0481079681698801
250	0xbfa77eba28095d7d	-0.04588872660377328
251	0x3fa6fbd6ebc5cd70	0.044890133171885505
252	0x3f695d33764a2b01	0.0030961995237864808
253	0x3fc10bd114def135	0.13317311781964639
254	0x3f80e49f0977987a	0.008248560406127082
255	0x3fb3645786c4d873	0.07574984588868165

model.gnn.0.GFL.3.bias f8 [32, 1]
0	0x3fcea532f188ada1	0.23941647332808905
1	0xbf9f7eb89d637ca0	-0.030756840330351864
2	0xbfc299b05d012e8d	-0.1453152135967354
3	0x3fc7f7d7153adb19	0.18725098168007362
4	0xc0075a48cf2336f8	-2.9190841848966294
5	0x3f7b5c7b9885ded5	0.006679995342316854
6	0x3fe8d1d9865d0e7b	0.7756164192473557
7	0x3fc8fdaad01082fb	0.1952413097324309
8	0xbfbc41555e4c5d84	-0.11037190963940274
9	0x3fc79d85a5d25220	0.18449469181781897
10	0xbfaa0bab1a72ed7c	-0.05087027261603347
11	0xbf98cd6bb7c40c01	-0.024221118060278716
12	0x3fb9c364bb54f394	0.10063771794825832
13	0x400937594378fd70	3.1520257254884925
14	0xbfc37670331c322f	-0.15205194945919362
15	0xc008892868ce9262	-3.0669716060677255
16	0x3fee5657d687e352	0.9480399313025407
17	0x3fcb5a953eeed421	0.21370187352081962
18	0x3fe35afa06869f80	0.6048555495699333
19	0x3fabfbb371c37024	0.05465470088685745
20	0x3fd0d7099496a91a	0.26312484274480286
21	0x3fdbf22079efc736	0.43665325076937067
22	0xc009ad75a5b59961	-3.209697050671068
23	0x40099ced6a9da799	3.201624710975875
24	0xbf52f4f9ccbb348d	-0.0011570395899298841
25	0x4004c8b9644f40d7	2.598009856861704
26	0xbfbd6c18880657ed	-0.11493066140096149
27	0xbfb54d20de04e6f1	-0.08320813579930665
28	0xc005cacb557871c4	-2.724020641077205
29	0x3fd2613f04c55485	0.2871854349699066
30	0xbfd3d9a51fbc770b	-0.3101589975284333
31	0x40080a68ca7f185a	3.005082685474048

model.gnn.1.bias f8 [4, 30]
0	0xbfb6bdc5e06079b4	-0.0888332054896413
1	0xbfb0f198dd3a2e0a	-0.06618647957855486
2	0xbfb1f4c99b6415f6	-0.07014141124462711
3	0xbfa8ad55e93fc5cd	-0.04819744560507964
4	0xbfb24092e3dae41b	-0.07129781782977355
5	0xbfa1fb0601b3fdbf	-0.03511828203954392
6	0xbfaae23e47e0402a	-0.05250734927551577
7	0xbfaa43197e77d7c3	-0.0512931792144822
8	0xbfaed25a2924e22e	-0.06019860985037827
9	0xbfb055989a6a0c51	-0.06380609292868768
10	0xbfb78721fc56198d	-0.09190571222834461
11	0xbfc04156b573fbca	-0.12699397907269222
12	0xbfc933c8512fd0d8	-0.19689277614782585
13	0xbfc1237a173844a7	-0.13389516958026101
14	0xbfc190b08833f34b	-0.13722807550939317
15	0xbfbcad9ca9e7c27b	-0.11202410839156045
16	0xbfb55bf7488c85b3	-0.08343453904355762
17	0xbfbd0c8ff20a3ae9	-0.11347293528727288
18	0xbfb8ecc7225ce4e8	-0.09736294354378894
19	0xbfb5c0e4f1600e1a	-0.0849745835585555
20	0xbfb6b6ef63c8fb90	-0.08872886835250271
21	0xbfb84ca6043bf9ac	-0.09491956332565249
22	0xbfc656865855de11	-0.17451552689793506
23	0xbfc1d216003c3a85	-0.1392238141201753
24	0xbfc7d29d6694ea5d	-0.18611495503303646
25	0xbfc73eaf6a8cd681	-0.1816005010857005
26	0xbfc921fa9c7d3a5c	-0.19634945527146186
27	0xbfb05cd214247023	-0.0639163302589059
28	0xbfcae85bff8c4033	-0.21021604516909206
29	0xbfc95a335c938741	-0.198065204814208
30	0x3fa858ce8f2306f8	0.04755254266048142
31	0x3fa8a58b0a88750b	0.04813799384667491
32	0x3fab45ca66ba64cb	0.05326683525090344
33	0x3faa47f4137d5e05	0.05133021104728289
34	0x3fa9e3e2514350a1	0.050566742343705735
35	0x3fa8b2d2a17351b6	0.04823930950957182
36	0x3fa88c0898cbf9c5	0.04794337144084041
37	0x3fa8ca90151c94bd	0.048420431687455225
38	0x3fa8d8e079d5ab07	0.048529639122383776
39	0x3fa83e1b1b14e0bf	0.04734883027634983
40	0x3fa5544f26fd30b5	0.04165885306301346
41	0x3fb3099ce90dde61	0.07436543168830091
42	0x3fb07c8c1789c69f	0.06440043997442978
43	0x3fae5d46aa58a631	0.05930538968489108
44	0x3faf8a9288c10909	0.06160409850464716
45	0x3fab14f1939814d8	0.052894162432531366
46	0x3fa9a412567122f8	0.05007989220809422
47	0x3fa748e7070a6e89	0.045478076562372634
48	0x3fa5c12e54765158	0.0424894788840528
49	0x3fa7bad82335fc97	0.046347383783534805
50	0x3fa86958929d4785	0.04767872609831073
51	0x3fa8eb13f3cd9ca7	0.0486685023413938
52	0x3faf8add706720b6	0.06160633084397331
53	0x3fa79fd23d546563	0.046141214357883674
54	0x3fa2790565cefd5e	0.03607956760196872
55	0x3f9dab65167667bb	0.02897413205719322
56	0x3fa38c686ba8f7f1	0.03818060220918074
57	0x3fabaf1b7dfb01d3	0.05407033837173327
58	0x3fa342e433f4cb7f	0.03761971601706814
59	0x3fa34b33d2b8828d	0.03768312403940852
60	0x4030392327f7d85f	16.22319268990429
61	0x402c5a00c243aa98	14.175787039527947
62	0xc00552f6ffd62ffc	-2.665510176395399
63	0xc01ecc2ee409d456	-7.6993976241111195
64	0xbff771310935697f	-1.4651346549713649
65	0x3ff280c3176876db	1.1564360536935314
66	0xc0223143a9a2eb39	-9.096219349992326
67	0xc01180c003057e84	-4.375732466898288
68	0xc010e74bb9804996	-4.225874803977055
69	0xc00a7e6f840cde54	-3.3117361370494027
70	0xc0180b0d34b5661c	-6.010792563983639
71	0xc0101ebd3823c0e3	-4.0300186893293555
72	0x402723b2c84d61df	11.569723376699526
73	0xc01f5cfc302b8cd1	-7.840805771501622
74	0xc017af39fb226f88	-5.92111961744002
75	0xc0191882063a7034	-6.273933503453055
76	0xc0146bae12665c03	-5.105156219003223
77	0xc0218ab2d683dacd	-8.77089567527346
78	0xc00bc529bc0ec3f3	-3.471271008682828
79	0xc016b512627177ec	-5.676827943969311
80	0xc011df092bb86403	-4.467808421258272
81	0x402b8fc06ac9e034	13.780764901297609
82	0x4031831b90da3950	17.51213937118274
83	0xc0050d438494d558	-2.6314764364166585
84	0xc028ecbee3e26abe	-12.462393876446523
85	0xc0115e9f1c4fb280	-4.342403833736739
86	0x4033eec79fe81481	19.932733530197314
87	0xc01312468ad16f9d	-4.7678472223596176
88	0xbfff24632e52518a	-1.94638364881857
89	0xc0124dca6c8aeeda	-4.575967498760031
90	0xbffeb173befa2351	-1.9183232746165297
91	0x400a6cba541420a5	3.303089768280261
92	0xbfb7f9c8fbeec875	-0.09365516806318104
93	0xc003bffb36663674	-2.4687408685629695
94	0x3fd4ca9c3d31e92b	0.3248663518530914
95	0x3ffa4f77a4552b65	1.6444012088056408
96	0xc0065de519ba78ac	-2.7958471307784603
97	0xc013a2027e9a2922	-4.908212640914174
98	0xbff45816968292a2	-1.2715059165285898
99	0xbfe08bf50ce6596e	-0.5170846225690136
100	0xc00041d7d55c3ff5	-2.0321499508645453
101	0xbffaa2265f03c4b3	-1.6645873748314386
102	0x40338152ab392776	19.505167676404618
103	0xc0116b0ab36ed50e	-4.354533008231796
104	0xbffe9af14dda5a47	-1.912827781785056
105	0xc0080fb8422d98eb	-3.007675663963814
106	0xbffc29566597b086	-1.7600921600779045
107	0xc0114adc0e426b6e	-4.3231050708808265
108	0xbfe4abaca20ff841	-0.6459563412934203
109	0xbfea72742fc98d10	-0.8264714177461503
110	0xbffe0a0044fc378a	-1.87744166323998
111	0x401b7f072a3100ad	6.874050769081959
112	0x4025a6dafb6240b3	10.825889449828855
113	0x3fce228d5e2c9e5b	0.23542945001939838
114	0xc02140dba8fb7af6	-8.626675873468667
115	0xc004900b1541cc62	-2.570333639212138
116	0x4021e5837517af78	8.94826856531266
117	0xc003f0528171d0ea	-2.4923448670252712
118	0xbfd542f5c1dbfd2c	-0.33221191340995193
119	0xc001a985abd2b615	-2.207774488799951

model.gnn.1.weight f8 [4, 32]
0	0x3fb1cd75d2272d88	0.06954132443131844
1	0x3facc714f9866d27	0.05620637460671168
2	0xbf55ae54c328c2de	-0.0013233020550950584
3	0xbfa225660044d062	-0.03544157746583278
4	0x3f694099d1245dfd	0.00308256189704159
5	0xbf5ebabae3547376	-0.0018755745962330795
6	0x3f9843035b358bc0	0.023693134729352527
7	0x3f9b08b937b90aab	0.026400465036440817
8	0xbf9b27827218ed52	-0.02651790448565567
9	0x3f4e5b285aae7a15	0.0009263941804993925
10	0x3fb8ef15a52212f1	0.0973981407315241
11	0xbf6813db747c7aad	-0.002939156172842536
12	0x3f775cb99909d77c	0.005703663817817058
13	0xbfa6f338230d7794	-0.044824365881807854
14	0x3f4300a8e30d0d1c	0.0005799126284745967
15	0x3fa1d1fa6b8365fa	0.03480513155382066
16	0xbf6674c98bbe8d71	-0.0027412353938004942
17	0x3f786694befcd983	0.005957203902474342
18	0x3f182493915702b9	9.20977657505967e-05
19	0xbf8ec35f565448f9	-0.015021080801066665
20	0x3fa5f1c198859985	0.042860078686135096
21	0xbf98386920ec20e3	-0.0236526895851349
22	0x3fb93f2594bb6ead	0.09861979371219816
23	0xbfad029fad79fcc5	-0.05666064255364626
24	0x3f776fa7e01c94ec	0.005721717608854631
25	0xbf88a3e8ee9b2038	-0.01203138330619434
26	0x3f5e5d7bbf50c401	0.001853342864034824
27	0x3fc0a818ffafe682	0.13012993321153848
28	0x3fc11f1b274b7f1b	0.13376178187081042
29	0xbf999d406ea2e4b3	-0.025013930084899893
30	0x3fc019ebe594fe5d	0.12579106054362202
31	0xbfa723c6649f886a	-0.045194816382505845
32	0x3fb2bc39afc68355	0.07318459073441137
33	0x3fa07aea743d0bd2	0.03218777340818914
34	0xbf470bd4b345a595	-0.0007033146453469414
35	0xbf8161c8001dd9e1	-0.008487284186895873
36	0xbfb19ed25d5c7ac2	-0.06882967738463733
37	0xbf5459c84df4ff7b	-0.0012421089266609609
38	0xbf632664a0029321	-0.002337643178253038
39	0x3f9b1c1e7a9ad728	0.02647445319481459
40	0xbf974e38e7227343	-0.022759331805548354
41	0x3ed0fa9908e1d4b0	4.048084646259321e-06
42	0xbfa2d9d42ef5e9ee	-0.03681815217256089
43	0xbf72b8ab4fe59717	-0.004570645511511782
44	0x3f68156b1639951d	0.002939900545060893
45	0x3fba9fbab13a9f4e	0.1039997751892063
46	0x3f3ce031d8edca77	0.00044060914017688503
47	0xbf73c331553b0028	-0.004824822146190434
48	0x3f0d2cdbf5a6bedc	5.564733756402231e-05
49	0x3f79b4eaf874761f	0.0062760523353780065
50	0x3f3bd695a5c90487	0.0004247775412161221
51	0xbf89fb90f92eaef6	-0.012686855892602971
52	0xbf763497d9ce6788	-0.00542125050278653
53	0x3f84cd09e2c74154	0.01015670512507031
54	0xbfc3a8b9868ec207	-0.15358656950185454
55	0x3fab2f4a25a37575	0.05309516629652481
56	0x3f6faf4c41d90059	0.003867768230321683
57	0x3f8f08723fd0a9b7	0.015152828762514099
58	0xbf585da0cdacf77d	-0.0014871664377120446
59	0x3fb0c3f679141ea8	0.06549015480060894
60	0xbf8018ce916ac7c7	-0.007859815418985406
61	0x3f7167c9a489b27e	0.004249370257281114
62	0x3f960d76f845f5dd	0.02153573885288106
63	0x3fafc455422e03b1	0.06204477722986413
64	0x3fe57f477c76412f	0.6717870169541466
65	0x3fddeb0044ab97cf	0.4674683256729368
66	0x4006bd7d6852cbd0	2.8425243520991685
67	0xbffcd71d47f48f56	-1.802518158984602
68	0x40108b48090a1323	4.1360169804000035
69	0xbfd11ee91d218fa2	-0.2675116333468798
70	0xbff1cee2bf0e5ce4	-1.1130092108849619
71	0xc0051681f73ff972	-2.63599007762894
72	0x3fd1c1a859ac0079	0.2774449229909873
73	0xc00fccc4e1a452e0	-3.9749848964951155
74	0xbfefd835184b683a	-0.9951425051215275
75	0x3ff4fdef16e36115	1.311995591551811
76	0x4019590f6509a39c	6.336972788537334
77	0x3fe505cdb2f49b44	0.6569584365105148
78	0x3fa77c32e3754c89	0.04586943651761383
79	0xbffa4ba5e1ba0b67	-1.6434687440348286
80	0x401d1ff02bc99a86	7.281189617328556
81	0x4007c2df08d8cea0	2.97015196715968
82	0xbff531b8c2814963	-1.3246390912869053
83	0xbfe29a1ea4d69e1e	-0.5813134402750995
84	0xc00c0fe0ff71e764	-3.507753368056841
85	0x400dfe7898bd10db	3.7492534573267284
86	0xbfed26b2f3272d6f	-0.9109740017969851
87	0x3fe5db39948c056c	0.6830108548457878
88	0xc008ae16cddf5dfb	-3.085004433039783
89	0xbfe7d429bd48e882	-0.7446488091438968
90	0xc00697ddc7679a71	-2.824153478478643
91	0xbfee0a1adbe21989	-0.9387335104554931
92	0x3fe5169a3419466c	0.6590090768388115
93	0x3ffa16e5e1d15cf0	1.6305903264054074
94	0x3ff527c280c8fd57	1.3222069769543248
95	0x3ff448adf99d759d	1.2677440405453588
96	0x40033362aa673154	2.4000905335180196
97	0xbfe3b4db67fd3085	-0.6158272772822931
98	0x400221a39f001e05	2.266425363722876
99	0x4003b40e8e8ebabb	2.462918390017277
100	0xc008f01afa0e421e	-3.1172389541245726
101	0x3fe832a00999ad05	0.7561798274522579
102	0xbfffe03b0eb7c03e	-1.9922438216126603
103	0xbfed6392db53494d	-0.9184049876878732
104	0xbfd01323df31eb29	-0.2511682204855555
105	0xc002e79e04208be7	-2.3630943605835344
106	0xbffc4e2b94036430	-1.7690845281379204
107	0xbffeb06fc73bf66e	-1.9180753500544614
108	0xbffd83b427009601	-1.8446542285468015
109	0x3fed1df50507cd5a	0.9099068735362537
110	0x3ffbf1bf68cff982	1.746520432876054
111	0xbff58f4681190f94	-1.3474793475042803
112	0x4017d2797635a213	5.955541464828019
113	0x4004e4503b200a32	2.611481153407362
114	0x400609b4670c2a0e	2.7547386217677348
115	0xbff9e8d0d619179c	-1.6193397868350763
116	0x3fc3bb5afba17bd5	0.15415513312015486
117	0x3ff1a7e05bb21816	1.1034854490149022
118	0x3fda7ce4712c31e6	0.41387282421126625
119	0x3ff71c7960d2fe3f	1.4444516927905082
120	0xc00e8599e920d967	-3.8152349675321378
121	0xbff3b079c18e3b5b	-1.2305848656430587
122	0xc00489c8a688df2f	-2.5672772417564356
123	0xbffd4779ca9540c2	-1.8299501336478419
124	0xbff826e2551d60e8	-1.5094931912226972
125	0x401976bb2ec54164	6.365948420323864
126	0xbffd5448417e8b7a	-1.8330767210361203
127	0xbffd12cc3d574a86	-1.8170893093235079

best_score f8 []
0	0x3fadce76ca7adcc8	0.05821582051924562

best_model_score f8 []
0	0x3fadce76ca7adcc8	0.05821582051924562

exp_avg f8 [32, 1, 8, 2]
0	0x3f997eeb3c8d1804	0.024898219652889977
1	0x3f7a600e3df2ec0a	0.006439262039914526
2	0xbfab2baea61796f1	-0.05306764390460995
3	0xbfa107df46668c5c	-0.03326318487531729
4	0x3f5c8b5e3666f44b	0.0017422122997310548
5	0x3f529f16fcc24522	0.0011365627752051928
6	0xbfa555eda849d86b	-0.04167120627691719
7	0xbf9e60c1f281abf1	-0.029665975977348272
8	0xbf83340eaf70652c	-0.009376635292982792
9	0xbf7baf48db801658	-0.006758961295422937
10	0xbfa142deb802b5e9	-0.03371330257628442
11	0xbf9825b86c56196b	-0.023581391918491883
12	0xbf8fcd2577770ea3	-0.015528004368099707
13	0xbf86dfc879dfdd05	-0.011169019908250375
14	0xbf9dbfb2aa92596e	-0.02905158201300522
15	0xbf94a8dcda763faa	-0.020175410112244364
16	0xbf4e160e5da10a66	-0.0009181566376884164
17	0xbf31dd0ed700dea8	-0.00027257549573132334
18	0xbfa1fd0d897484b5	-0.03513376524848281
19	0xbf894927f7320ae4	-0.012346565467173894
20	0x3f9d4340c5bd7909	0.028576862401103607
21	0x3f95f5d729de6998	0.021445619516819642
22	0xbf84a9358f6b6f7e	-0.010088365973778709
23	0xbf67267832fcc4c6	-0.002825960887911624
24	0x3f94c0d1fa7f434a	0.020266800798540964
25	0x3f8d883826cc113b	0.014419974025721252
26	0x3f604f663844766b	0.001990985534702718
27	0x3f66a9aa61fe1835	0.0027664497174013877
28	0x3f919ebda789e0c9	0.017207110739463603
29	0x3f87909de73cca2b	0.011506303424174543
30	0x3f7fcb238f7d567c	0.007762087734439423
31	0x3f767d238ba841fb	0.005490435456991789
32	0xbfc5257f6df0ef5c	-0.16520684116573647
33	0xbfc277cfe6de1ca3	-0.14428137562592722
34	0x3f85049db29e9c79	0.010262710584198797
35	0x3f688dd323879a1b	0.0029973148159456848
36	0xbfac40c71b7e7d42	-0.05518171511288951
37	0xbfa2ccaf314b03d4	-0.03671786762925647
38	0xbf8d6b988d31efae	-0.014365379151278859
39	0xbf86e466abd5f174	-0.011177827948579667
40	0xbfa4a3a89ee354e7	-0.0403111165957542
41	0xbf9a152a29d41151	-0.025471361926080963
42	0xbf96c1bebcdd4dac	-0.022223453786251277
43	0xbf8ec57e73da213c	-0.015025127325558267
44	0xbfa24ae0f8d57a56	-0.035727529883605655
45	0xbf97115bb75c851b	-0.022527154032222812
46	0xbf9a609e134bac98	-0.025759191444120505
47	0xbf9131f285674cc3	-0.016792096512131104
48	0xbf871a0ff99b6ef3	-0.011280178837686594
49	0xbf6e9c61df3536cb	-0.0037366782723101447
50	0xbf6c690203975d7e	-0.0034680404030315573
51	0xbf5f9c111242cbbb	-0.0019292990410064565
52	0xbf6e1d33406e71b6	-0.003676033116290801
53	0xbf52fc3872dfaa5e	-0.001158766866405834
54	0xbf5d24bc6e1c7848	-0.0017787780893239336
55	0xbf5451985d4a8442	-0.0012401569303295422
56	0xbf5c1faad3d0e302	-0.0017165344463718206
57	0xbf4743872d42e5b7	-0.0007099542658785461
58	0xbf542bec124d306f	-0.0012311749826095194
59	0xbf4d7385ae97ee81	-0.0008987810844582473
60	0xbf53ffcdd87e1b87	-0.0012206564151442127
61	0xbf4514ee65cf2f41	-0.0006433643389924596
62	0xbf518d16dee2cc9f	-0.001071235975854269
63	0xbf490005c5686419	-0.0007629421405140918
64	0xbfa0c2aad1fd4876	-0.032735193379850466
65	0xbfa410841e4a9dc9	-0.03918850774544642
66	0x3f8ce5cc59d9caed	0.014110180370356907
67	0x3f73763bcafd8e0d	0.0047514281903633495
68	0xbf8866fff53cc8b9	-0.011915206595947902
69	0xbf83980f96a7c20b	-0.009567376885542897
70	0x3f1ace9f80e99ed3	0.00010226105244159492
71	0xbf58ad26d867bb12	-0.0015061263417199306
72	0xbf85e7eec81550c4	-0.010696282845551137
73	0xbf7d70f92fe768e4	-0.007187817942815953
74	0xbf712ec027e81f32	-0.004194975480011286
75	0xbf69a3a557619c50	-0.003129790241519305
76	0xbf84b3628b3b4dcb	-0.01010777461434644
77	0xbf7a3fa67f36b559	-0.006408357981326184
78	0xbf78a81ab0a2bf9b	-0.006019691713092269
79	0xbf6fc620a6a432a9	-0.003878654261944743
80	0xbf9130dc045b6ef3	-0.016787946477832837
81	0xbf98c2bc9737dbe8	-0.02418036148989336
82	0xbfa4f3ff9e027aef	-0.04092406085805133
83	0xbf9ec56a0785aa88	-0.03004995032226046
84	0xbf93fcd4c306e93a	-0.019519161609175863
85	0xbf903b97b4e8aac1	-0.015852327744293463
86	0xbf9aa099d207c85b	-0.026003268665541018
87	0xbf93b6e8e0b716d2	-0.01925243255188642
88	0xbf9a234fb103f8f9	-0.025525326899690424
89	0xbf91ecc5ef0e630a	-0.017504780498344842
90	0xbf9a92a0133d441a	-0.025949956106448104
91	0xbf9274e225f01a8e	-0.01802399975351903
92	0xbf9c7bc108aae75c	-0.027815834192302588
93	0xbf92b341c8953f8c	-0.018261936061491776
94	0xbf9c6e56be3c0d6b	-0.027764659272191333
95	0xbf92f94590151718	-0.01852902118596153
96	0xbfaa3ca2235abca5	-0.05124384576390043
97	0xbfad1cc4d820e819	-0.056860114462736706
98	0xbf98ebec93c8dc4c	-0.024337479133660175
99	0xbf800155c32c7c1e	-0.00781504632828783
100	0xbf7c903e3358b4ca	-0.006973498316751045
101	0xbf235c1128d62caf	-0.00014770230738423348
102	0xbf9e061136c8e5ff	-0.029320019692226747
103	0xbf8cc30e637a094a	-0.014043915186679929
104	0x3f59ad9534311d95	0.00156726427737106
105	0x3f70bb84cfb54263	0.004085081858037218
106	0xbf92bb9c4e45072e	-0.018293802525710827
107	0xbf81dd169f893193	-0.00872247385373085
108	0x3f685db919e95298	0.0029743781335958668
109	0x3f6f977d20b18f8c	0.003856415166909549
110	0xbf83d2078a0f3bdb	-0.00967794313501529
111	0xbf715d40a5a50ef0	-0.004239323165453376
112	0xbf90be63e3a85301	-0.016351280946838468
113	0xbf83eb44bbc96e38	-0.009726082783507825
114	0x3f9bfbbfbe2907aa	0.0273275337042446
115	0x3f921a9258b9ca5c	0.017679487862958573
116	0x3f8fd083a0815ce1	0.015534427963002919
117	0x3f8fcd9766906bde	0.015528853242406212
118	0x3fa1ebdee77f4a8f	0.03500267578023852
119	0x3f96b1f55e0c85f0	0.022163232674875688
120	0x3f96fb8aa8293864	0.022443930162176065
121	0x3f9364a7b2223918	0.01893865608922693
122	0x3fa2c6bec210d143	0.03667255515066128
123	0x3f97bc346dc47e8a	0.02317888183563225
124	0x3f9c6d9d8153e57a	0.027761899012124648
125	0x3f95b70a5674a0b8	0.021206056143598245
126	0x3fa30d4965c3e1bf	0.037210744545464795
127	0x3f984ea46adc26bc	0.02373749639722321
128	0xbf77706a49d6fad0	-0.005722441853719132
129	0xbf6e2bdc583256a1	-0.0036830237964505384
130	0xbf6fba08452be3c3	-0.0038728868033754706
131	0xbf567491f821e9f2	-0.0013705659371497894
132	0xbf6e76e297db29ed	-0.0037187982223703038
133	0xbf617ff89222d92d	-0.0021362166308690673
134	0xbf8bb6f3b35da4e2	-0.013532546912488678
135	0xbf82f5caf42544dd	-0.009257875037891267
136	0xbf7ceb8cb6fb605c	-0.007060575167734919
137	0xbf73f7c56a3b8250	-0.004874964859226852
138	0xbf8ad1fd87df011d	-0.013095837315518605
139	0xbf829818c739bc5d	-0.009079164104347887
140	0xbf81308931a6d521	-0.008393356158971134
141	0xbf7819d6fd21e821	-0.005884017753595956
142	0xbf88f55e558482a7	-0.012186753258505446
143	0xbf8165d27ec6321b	-0.0084949917734543
144	0x3f81f8c0fc32d57c	0.008775241562356532
145	0x3f735fc475c600e8	0.004730002805786372
146	0x3fa13d32616b1648	0.0336700195235094
147	0x3f921759e3dd495c	0.017667202503909393
148	0x3f992716dc4fa939	0.02456317634270386
149	0x3f8b05f385913847	0.01319494487156815
150	0x3f9da13b4cdb2cf7	0.028935362401893063
151	0x3f9180e4a8aab524	0.01709325103245364
152	0x3f9da65d8ccf57ff	0.028954946250301813
153	0x3f910b2f87ab0d7c	0.016644232421425084
154	0x3f9b490c77bd4eee	0.026645846184080328
155	0x3f8fd5f7c38ab434	0.015544829993212252
156	0x3f9c4d3364790888	0.027638247496959895
157	0x3f905616017b18bd	0.01595339187658661
158	0x3f9a1bdb8c50ce6d	0.025496893347919092
159	0x3f8e6776369f3d8b	0.014845775167400507
160	0xbfacdd76e8a53aa5	-0.05637713994894015
161	0xbf992ee79fd1b472	-0.02459299004515398
162	0xbfa92b0b280676ad	-0.04915652144994218
163	0xbfa147ac68372d79	-0.033749950143454784
164	0xbfa1f716f56a4ac5	-0.03508826967040116
165	0xbf8fec00c06c6e26	-0.015586858627606292
166	0xbfac15d9632552fa	-0.05485419593120429
167	0xbfa2443dfc537e7d	-0.03567689614442047
168	0xbfa0e52a5f3ada57	-0.0329983941314153
169	0xbf9108949e4deedd	-0.01663429466451204
170	0xbfa97fb6e80a5817	-0.04980250914120193
171	0xbfa0174e166e3f2c	-0.031427803266636495
172	0xbfa133e6d3b8a624	-0.03359910330284446
173	0xbf92f26b251b508d	-0.018502878322423078
174	0xbfa6cb7795fc5d9d	-0.04452108102685346
175	0xbf9c74ed1d2f8e31	-0.027789788156850462
176	0xbfb2270b505d45d0	-0.07090826713581255
177	0xbfb1300c1aa83179	-0.06713939333730491
178	0xbf704f909423c162	-0.003982128868514985
179	0xbf5c158700d3b3e4	-0.0017141168967171822
180	0xbfa705192280a008	-0.04496077104732882
181	0xbf9f84eb665065ff	-0.030780485267404952
182	0xbf94d191b43b2b88	-0.020330692887721408
183	0xbf8ae21a0e7a1976	-0.013126567427445873
184	0xbfa42fb6a78c9cc0	-0.03942652507094513
185	0xbf9a2ef7f4be83f7	-0.0255697959070211
186	0xbf99e0ce9a3d3c23	-0.02527163330460892
187	0xbf90715c6b5692ba	-0.016057437945749632
188	0xbfa29fbadfc2428b	-0.03637489301138882
189	0xbf97e5364ad1d8a9	-0.02333531219161303
190	0xbf9c648141d82ebb	-0.027727145809008685
191	0xbf920570400ea5b4	-0.01759887114500254
192	0xbf8c879f9adee474	-0.01393055621507442
193	0xbf8d8b62eae9822b	-0.014426014703702602
194	0x3f5b1bf1eefbe7e7	0.0016546118385449783
195	0x3f51f71f18bb75c9	0.0010965160062633586
196	0xbf77b7ba7d7d60bc	-0.005790451505014168
197	0xbf729185f3a6992f	-0.004533313035074023
198	0xbf5408ecaea136c2	-0.0012228309010597215
199	0xbf4f8d40d93f249d	-0.0009628836291934066
200	0xbf72b3ed1d6e1e4c	-0.004566122274702499
201	0xbf6b1493105fe0f8	-0.0033057091086413602
202	0xbf61afed22c379ed	-0.0021590835150242433
203	0xbf5912cb40f01095	-0.0015303597353986443
204	0xbf70ac25c881770b	-0.004070422735905198
205	0xbf678f804295342b	-0.0028760438041559775
206	0xbf65869a69da7155	-0.002627660359236265
207	0xbf5de3612cd301ee	-0.0018242310500654574
208	0xbf7fc47e9b6bfecc	-0.007755751189278914
209	0xbf5ae421ce16bde7	-0.0016413049819269333
210	0xbf9fb02856c67081	-0.030945425316176504
211	0xbf8813d641bd63c1	-0.01175658596155127
212	0x3f9257190b159852	0.017910376836333626
213	0x3f8feeb3e2c66e36	0.015592007978560845
214	0xbf1bac48910a7fc0	-0.00010556404982731051
215	0x3f7001af0c9f74ae	0.0039078557838056315
216	0x3f90cfeaf76fa633	0.016418143608382074
217	0x3f8ac0f1332c0e17	0.01306332051672769
218	0x3f8734211a56a5f8	0.011329897514616313
219	0x3f82cc840c8d23a7	0.009179145463024186
220	0x3f916e30647cbc80	0.017021900304083903
221	0x3f894c81927a8e12	0.012352955134082886
222	0x3f90774bdac7c58b	0.016080079296391808
223	0x3f872c27edeee293	0.011314689587252935
224	0x3f719bd174940bb5	0.004298990426152939
225	0x3f5d166264b1dfe9	0.0017753563759281782
226	0x3f7059e303821e81	0.0039919727061100705
227	0x3f4caa7cdb5c76d6	0.000874815907738936
228	0x3f7135af4f9bb3b5	0.004201588448023698
229	0x3f598f791dce5715	0.0015600855615267074
230	0x3f67746408db43fc	0.0028631166268060487
231	0x3f420a1838cb1c2f	0.0005505197783229938
232	0x3f6fc87e4fb30f1f	0.0038797823923192444
233	0x3f5435659c4482cc	0.0012334339417707117
234	0x3f677492b6823ba7	0.002863203571969081
235	0x3f44052aef328d95	0.0006109676018194893
236	0x3f6ec88668342b9f	0.0037577271592729856
237	0x3f541c09cb93238f	0.0012273879677186827
238	0x3f68c386acd452eb	0.003022921597798924
239	0x3f49f82f14e25873	0.0007925252810021668
240	0x3f61201b4bffcc8d	0.002090504945948596
241	0x3f56b426b73a8232	0.0013857248385776952
242	0xbfa38e89d2b128ed	-0.03819685646938518
243	0xbf963d29adb2a716	-0.021717692591358327
244	0xbf4e007d7474de31	-0.0009155857632440809
245	0x3f32dd332f86953f	0.0002878427472075735
246	0xbf97ead3362c1397	-0.023356723958403682
247	0xbf8f0e6092c3475c	-0.01516414115795655
248	0xbf7a9f61d17a2d5c	-0.006499654867762796
249	0xbf6db9fb06363775	-0.00362872150589671
250	0xbf93a4232324b724	-0.01918082143782053
251	0xbf88e3add0ae4ed4	-0.012153013163504957
252	0xbf8481ebf25c72d2	-0.01001343091371024
253	0xbf786f713e49c54c	-0.005965654713336942
254	0xbf91b7824fc94a0e	-0.01730159389473767
255	0xbf85f1c1527a2097	-0.010715017632961383
